src/model/model.tflite (tflite, 978900 bytes, 8 tensors)

sequential_6/conv2d_18/BiasAdd/ReadVariableOp f4 [32]
00000000: b21e 493d 54ee db3a 498d 0bbd ee3b 7f3d
00000010: ba73 14bc cb2b b53d 3b07 90bc 457e e9bc
00000020: 2372 41bd 73ce be3b 2de0 d63d 1eb7 d73c
00000030: 2462 93bc b1da 993c 881d abbc af16 c2bc
00000040: 5e20 a53d 3228 b53d 4152 973d 8782 84bc
00000050: 7526 a2bc 0c64 983d 2871 8abc 677d e8bc
00000060: 6468 8abd 0fab 10bd d3d3 c8bc 658a babb
00000070: 26c3 3d3d d316 443d 8296 0cbd e19e 1abc
0.04910154 0.0016779401 -0.034070287 0.062313013 -0.0090607945 0.088462435 -0.017581573 -0.028502593
-0.04722799 0.0058229505 0.10491977 0.026332434 -0.017991133 0.018781038 -0.020888105 -0.023692457
0.08062814 0.08845557 0.073887356 -0.016175522 -0.019793728 0.074409574 -0.01689966 -0.028380109
-0.06758192 -0.035319384 -0.024515068 -0.0056927674 0.046328686 0.04787333 -0.034323223 -0.009437294

sequential_6/conv2d_19/BiasAdd/ReadVariableOp f4 [64]
00000000: 0efe 6f3b 964a 8a3c 3928 6cbc e1a3 8abd
00000010: e682 04bd 7eb2 603d eed7 a9bc 3c08 653c
00000020: 803e a1bc ee57 8f3d 20c6 923b d3fe 193c
00000030: ae72 83bd 3143 1a3c 97e9 cc3c 9b38 19bd
00000040: 4b03 1e3d 34a3 663d 573c 37bc 4253 49bc
00000050: 5961 ac3d 8076 823d bd72 f4bc 4050 b2bc
00000060: 6625 38bd 9af8 213b c80c f1ba fec3 b23c
00000070: 4045 05bd e973 1d3c d95b 9c3d b568 cbbc
00000080: d73f 24bc a317 be3d 722f 413d 7b4e 843c
00000090: f3e2 2ebd 04e2 f6bc 5f36 5e3d b570 123b
000000a0: c193 a2bd 054a 9ebb a5ac 80bc 7484 82bd
000000b0: 0955 91bd 752a 34bd 9db0 373c 213b 5ebc
000000c0: 4c6d 593b 705c 2c3c a869 143d ea06 23bd
000000d0: 474b c3bb fac8 ed3a a1a1 623b 33de bcbc
000000e0: 1fd6 acbc 7796 c83c 954f 66bc 715a 85bd
000000f0: 7132 bbbc e587 163d ab78 b0bb 913e 3b3d
0.0036619934 0.016881268 -0.014413887 -0.06769539 -0.032351397 0.054857723 -0.020732846 0.013979014
-0.019683123 0.06999193 0.0044791847 0.009399134 -0.06418358 0.009415434 0.025013728 -0.0374075
0.03857736 0.056307986 -0.01118382 -0.012287917 0.08417005 0.06370258 -0.029839868 -0.021766782
-0.04495754 0.0024714828 -0.001839065 0.021821972 -0.032536745 0.009610155 0.07634706 -0.024830202
-0.010024986 0.09281852 0.047164388 0.016150704 -0.042696904 -0.03013707 0.05425107 0.002234501
-0.07938338 -0.004830601 -0.015707323 -0.0637292 -0.07096297 -0.043985803 0.0112115415 -0.013563902
0.0033176718 0.010520086 0.036233574 -0.039801516 -0.0059599015 0.0018141561 0.0034581202 -0.023055172
-0.021098195 0.02448581 -0.01405706 -0.06511391 -0.0228512 0.036750693 -0.0053854785 0.045713965

sequential_6/conv2d_20/BiasAdd/ReadVariableOp f4 [128]
00000000: 4f1f eabc bde2 29bd 6482 61bc f90d 12bc
00000010: e3e8 13bd 4f98 34bc da4c 90bc 811d b7bc
00000020: 9b2a 18bc 053d 46bc a2ea 12bc 9bed 8bbc
00000030: c69e ae3c 9d52 223c 4f17 a3bb b064 10bc
00000040: a75d a83c 2b57 a5bb 64a3 ad3b dd55 debb
00000050: f965 adbc ceb6 e73a de58 5abc d8b6 2ebc
00000060: ad73 743d e472 1fbc 7c02 e3bb 85fc f3bb
00000070: 6c3c 6bbc 886b 18bd bbd3 3e3d 58c8 49bd
00000080: 57bf 9dbc 15c6 42bc 6113 23bc c446 3e3c
00000090: 5203 92bc 4176 22bd 431f ee3c 5962 22bd
000000a0: 66d6 20bc f501 37bc c194 11bc b1a1 0bbc
000000b0: 46d9 1fbc fac6 e6bb ed95 eebb f42a dd3c
000000c0: ff36 1a3c cc18 83bc b716 d2bc e06c 8dbc
000000d0: 94d5 26bc cc03 483d e7fe 31bc 267f 23ba
000000e0: 59d8 0ebd 350b 3dbc c294 a8bc 472c dd3c
000000f0: fcdd 4bbd 805d ecbc 27f6 bcbb 9e1d debb
00000100: 3d34 fcbb 6be4 2fbc c0cb f3bb 0040 acbc
00000110: 23ca d4bc 6ef8 f8bc a96a 0dbc 8a53 49bc
00000120: 0a08 b6bc 2f50 87bc 53d8 213c 5ac2 9d3c
00000130: 27e3 babc 958e cf3c 4ccd 543d 08d5 13bd
00000140: d22c 87bc be11 0bbd 3b6a 253c 9a30 27bc
00000150: d4db 873c 71e3 09bd 84d3 6fbc 6224 34bc
00000160: dd16 5539 7d91 043d 8200 553c 49fe 04bc
00000170: 2732 d5bb 2f3d 28bc 1e4c b5bc 31c2 b9bc
00000180: 8792 243c 33ec 85bc a896 2c3b 6ac3 913d
00000190: 15ed fabb 875b 04bc 5dcc f8bc c029 2ebc
000001a0: 9d9e ddbb 1d2f 3abd c98d 023d 2b6b 293d
000001b0: eac4 15bd f512 dd3c cbc4 aabb c110 6a3c
000001c0: cc7c 823c 28b1 26bd 2bec 093d 1c52 5fbd
000001d0: e0f0 10bd 5bc4 48bc 093b f03b 2af6 553c
000001e0: b779 39bc 1f1e e3bc 54aa ebbc f249 dabc
000001f0: e44d c7bc df64 f9bb 4f1a e6bc f87d 89bd
-0.028579382 -0.041476 -0.013763998 -0.008914464 -0.03611077 -0.011022641 -0.01761477 -0.022352936
-0.009287502 -0.012099509 -0.008967074 -0.017081073 0.021315943 0.009907392 -0.004977144 -0.008813068
0.02055247 -0.0050457916 0.0052990187 -0.006785138 -0.021166788 0.0017678381 -0.013326852 -0.010663711
0.05968063 -0.009731982 -0.0069277864 -0.007445874 -0.014357667 -0.037211925 0.04658864 -0.04926333
-0.019256277 -0.011888047 -0.009953351 0.0116135515 -0.017823849 -0.039663557 0.029067641 -0.039644573
-0.009816742 -0.0111699 -0.008885563 -0.008522437 -0.009756392 -0.007042763 -0.007281056 0.02699802
0.009412526 -0.016003035 -0.025645597 -0.01726383 -0.010182757 0.048831746 -0.010863996 -0.0006236903
-0.034874294 -0.0115383165 -0.020578746 0.026998652 -0.049772248 -0.028853178 -0.0057666483 -0.006778433
-0.007696657 -0.010735611 -0.0074400604 -0.021026611 -0.025975293 -0.030391898 -0.008631387 -0.012287984
-0.02222063 -0.016517727 0.009878236 0.019257713 -0.022813393 0.025336543 0.0519536 -0.036091834
-0.016500864 -0.033952467 0.010096128 -0.010204459 0.016584314 -0.03366417 -0.014637832 -0.010995002
0.0002032178 0.03236531 0.013000609 -0.008117267 -0.0065062228 -0.010268494 -0.022131022 -0.022675605
0.0100447005 -0.01634798 0.0026334915 0.071173504 -0.007657657 -0.008078462 -0.030370886 -0.010630071
-0.006763293 -0.045455087 0.031873498 0.04136197 -0.036564745 0.026986578 -0.005211448 0.014286221
0.015928648 -0.040696293 0.033672493 -0.054521665 -0.035385966 -0.012253846 0.0073312563 0.013059178
-0.011320523 -0.027724324 -0.028767742 -0.026646588 -0.024329133 -0.0076109017 -0.028088717 -0.0671348

sequential_6/conv2d_18/Conv2D f4 [32, 3, 3, 3]
00000000: 8213 2a3e 8208 2bbd d0f2 edbd 4d90 6fbd
00000010: 7dd4 e4bc 5c2d 04be 3af7 3dbd e2c5 03be
00000020: 1109 26bc ac94 10bd b41d 9ebd ea0f 013d
00000030: 9bb8 0f3d b09e b5bd dc55 3d3d ca40 353c
00000040: f835 18be beab f5bd 5241 303e 340f 283d
00000050: c9be bebb 08e3 253e 925b c2bd 2d59 be3d
00000060: 5e84 ee3c b4ef f63d b43b cc3d 5db4 1ebd
00000070: d72e 5e3d 1619 3f3e 23b4 5ebd 022a c6bd
00000080: 2f54 20bc 24af c9bd 859d 03bd 389f c03c
00000090: 9e54 e63d 6468 cd3d f62d 073e 5bb2 9e3d
000000a0: a77f f4bd f6ba 9cbd ad4e 2bbd c5d0 e6bd
000000b0: 05c0 263a 4446 0e3e c975 183d 957f 73bd
000000c0: 9b87 173d 30c3 9b3d 2252 bbbd 3623 09be
000000d0: 0ec6 273d 6169 06be 62db 98bd bcec e73b
000000e0: 0b6a 0a3e e2e5 eebd 6c1a a23d 6981 ad3d
000000f0: e387 3cbe 0188 123d b359 a03b c5f3 72bb
00000100: 4f79 f7bd 7def 9b3d 7922 b43d c793 4abd
00000110: 48d2 e73d fce0 1e3d 4186 e03c acd3 16bd
00000120: c8fd 04be 3dfc f73b 91f4 62bb ea88 843c
00000130: 8cce 193e 686d 063c 163a c7bd 134d 913d
00000140: 5927 8ebd ff6c e7bd 7e04 33bd d34e 01be
00000150: 84b2 d9bd eb9c 953d 8f28 ca3d 9a0d ddbd
00000160: b366 063e 93f0 11be 4034 373d 707a d03c
00000170: 6fa2 65bd 8972 973d 9ace fbba 1a98 ae3c
00000180: 2926 d0bc b9c9 063c 7292 ae3d b62d 353c
00000190: 7460 1a3e d320 fdbd 7d83 20be ce09 d23c
000001a0: f83d 843b cbb2 0bbe 79e7 653c f270 aebd
000001b0: 0389 f6bc 6e98 1dbe e93a 0a3e 71fb 083d
000001c0: acff 14bc d270 093e 4f35 f7bc 4acb 3ebc
000001d0: d401 193e 9f11 133e a808 4f3d 7fcd 053e
000001e0: a7fb 6f3d 6a7c a03c b207 05bd f308 e53d
000001f0: 409b 37bc 57a1 b5bd a769 10bd 6fa6 2cbe
00000200: ab56 863b 0d30 813d 3b9d aebc 8074 0f3e
00000210: fb12 09be 1817 eebd e898 ebbd f9e4 27bc
00000220: 1ceb 15be f0ff a63c f153 343d b4ee 21bc
00000230: 60ec 153e 5269 8c3d 4390 eabd 3264 2b3e
00000240: 699a 7abb 562f 13be bfdb 8dbc 8e6f b1bd
00000250: 9077 10be e91b f83d 6103 babd 0292 13be
00000260: 56d9 3cba a21a 20bd 094e 27be 70d5 96bd
00000270: feb7 353c aebe 9bbc a6f2 793d 7f9d 083e
00000280: 5577 b83b 9f37 4d3c a767 1b3e 45c8 f53b
00000290: a0da 253e b51f c1bd f83f a43d 01f3 b53b
000002a0: bd42 c43d d2e5 493d 4a27 363d 3876 573d
000002b0: fa80 debd 9a1a 8c3b d11b 0ebe 769f bdbb
000002c0: c896 f8bc 057e bfbd d95e c9bd 948d f2bd
000002d0: 4ccd e63b 9928 d8bd ebd2 0e3d e8a1 043e
000002e0: 755f e43d d8af 9a3d 865c 30be 7e19 ac3d
000002f0: 09d9 00be cf48 0abd 49bf 793d d825 1a3d
00000300: ea82 f83d a4fd ba3d 936b 6cbc 2d94 2abc
00000310: feea dc3d 5441 9b3d a088 753d 4003 0cbe
00000320: 75b2 b73d 6cd9 b1bc 0c63 1ebe 4b1f 4dbd
00000330: bd7c 843d 93b3 833b ca76 6ebd aa00 eb3d
00000340: d782 10be 86f0 613d f78e eebd e0a7 d83c
00000350: bba1 d1bd 5ced db3c 356f 44bd f23b 603d
00000360: 319f f93d 74a7 b83d af20 34bd 4f6e 083c
00000370: c132 abbd 5654 45bd 3cf2 88bb cf3e d73d
00000380: 3dd1 d93d 69d9 ccbd 5f5a 7f3d c89f d03d
00000390: d8d8 1f3d 94ea 713d f86b 0cbd e4f3 89bd
000003a0: be72 c03d 19e5 4fbd d879 0c3e 0818 7dbd
000003b0: 6fb5 a0bb a2ad 883d 25e6 af3d fa5c 9d3c
000003c0: 53cd f9bd 65bd 103e aae5 ed3d 2ab6 003e
000003d0: 14c2 d53b 5177 f43c 1878 163e a09a 003e
000003e0: cc82 99bc 56a9 063e 9935 8dbd 2e49 113e
000003f0: d02f 0dbd a3ad bb3d 0124 c0bd 37b7 79bd
0.16609004 -0.04175616 -0.116185784 -0.058487225 -0.027933354 -0.12907928 -0.04637835 -0.12868455
-0.010133998 -0.035298035 -0.07720509 0.031509317 0.035088163 -0.08868158 0.04622446 0.01106281
-0.14864337 -0.11995648 0.17212418 0.041030124 -0.005821083 0.16199887 -0.09490122 0.09294353
0.029115852 0.120574385 0.09972325 -0.038746227 0.05424389 0.18661913 -0.05437101 -0.09675981
-0.009785696 -0.098478585 -0.032132644 0.023513421 0.11246608 0.100296766 0.13201126 0.07748862
-0.1193841 -0.076528475 -0.041823078 -0.112702884 0.00063610106 0.13893992 0.037221704 -0.059447844
0.036994558 0.076055884 -0.09146525 -0.13392338 0.040960364 -0.13126136 -0.07463719 0.0070777815
0.13517015 -0.116649404 0.07915196 0.08471949 -0.18411212 0.035774235 0.0048935055 -0.0037071567
-0.12083685 0.07614038 0.08795638 -0.049457338 0.11319405 0.03878878 0.027407767 -0.03682296
-0.12987435 0.007567911 -0.0034630636 0.016178567 0.15020198 0.008204795 -0.09727876 0.07094779
-0.06941099 -0.11300086 -0.043705456 -0.12627725 -0.10629752 0.0730532 0.09871017 -0.1079361
0.13125114 -0.14251928 0.044727564 0.025449008 -0.056063112 0.07394893 -0.0019211352 0.021312762
-0.025408821 0.008226805 0.08524026 0.011058262 0.15075856 -0.12359776 -0.15675159 0.02563944
0.0040357076 -0.13642423 0.014032238 -0.08517636 -0.03009463 -0.15390179 0.13499035 0.03344292
-0.00909416 0.13421944 -0.030176787 -0.011645148 0.14942104 0.1436219 0.050545365 0.13066672
0.058589604 0.019590575 -0.032478042 0.111833476 -0.011206448 -0.08868664 -0.035257008 -0.16860364
0.004099687 0.06307993 -0.021315208 0.14009285 -0.13386147 -0.116254985 -0.11503774 -0.010247462
-0.14640468 0.020385712 0.044025365 -0.009883571 0.14640951 0.06856026 -0.11453297 0.1673744
-0.0038239008 -0.14373526 -0.017316697 -0.086638555 -0.1410811 0.121146984 -0.09082676 -0.14411166
-0.00072040164 -0.0390879 -0.16338362 -0.07364929 0.01109123 -0.019011822 0.061022423 0.1334133
0.00562946 0.012525468 0.15176259 0.0075006806 0.1619668 -0.09429876 0.080200136 0.00555265
0.09583042 0.04929144 0.044471063 0.052602977 -0.10864444 0.004275632 -0.13877799 -0.0057868315
-0.030345336 -0.09350208 -0.09832544 -0.1184341 0.0070435163 -0.105546184 0.034869116 0.12952387
0.111510195 0.07553071 -0.17222795 0.084033 -0.12582792 -0.033760842 0.06097344 0.037633747
0.12134345 0.09130409 -0.014429945 -0.010411304 0.10787009 0.0758082 0.05994475 -0.13673115
0.08969585 -0.02171012 -0.15467471 -0.05007867 0.064691044 0.0040192096 -0.058218755 0.11474736
-0.14112411 0.05516102 -0.11648362 0.026447237 -0.10235926 0.02684658 -0.047957618 0.05474467
0.121885665 0.09016314 -0.043976482 0.008327081 -0.0835929 -0.048176132 -0.004179267 0.10510027
0.10635612 -0.10002405 0.062342044 0.10186726 0.039025158 0.0590616 -0.034282655 -0.067359716
0.09396885 -0.050755594 0.13718355 -0.061790496 -0.004904441 0.06673743 0.085888185 0.019209374
-0.121973656 0.14134748 0.116160706 0.1256949 0.00652338 0.02984205 0.1469425 0.12558985
-0.018739127 0.13150534 -0.068949886 0.14188072 -0.034469426 0.09163978 -0.09381867 -0.060965743

sequential_6/conv2d_19/Conv2D f4 [64, 3, 3, 32]
00000000: 4279 653d 209f 00be 0118 a83b cbce c4bd
00000010: ab48 e33c 7bd7 42bd 81e4 a5bd 1d41 7e3d
00000020: e62c 2d3d 5e43 b1bd 4486 233e b398 36bc
00000030: 99f0 9f3b e4a9 0dbd d75d 223d 98bb 4d3c
00000040: db3d d8bd 8e2c 74bd 636b 7c3d 616b ec3c
00000050: 494c 25bd ba4f 58bd 2f02 09bc 5f9b 283b
00000060: 936c fa3c 7faa 83bd 229f 95bd 3f0b 1d3d
00000070: 3f75 e3bd 6c06 903d a8d2 3abe eb32 b33d
00000080: 0e58 57bd a352 23bd 29ae b5bd a9e1 a5bd
00000090: 9201 1a3d 355b a5bd d763 b4bc 1245 c13d
000000a0: 09cf 453d 3a2a a5bd 0855 4d3d 3467 60bd
000000b0: 2657 53bd cbb8 763c f01d 9dbd 6b29 2b3c
000000c0: b65a 65bd d95c cebd 8394 183d 841b b2bd
000000d0: 66c0 3fbd a001 23be d9f1 dcbc f2d7 91bd
000000e0: 487e 7ebd 99d6 9dbd bcef ee3b 05df ba3b
000000f0: e8d6 8fbd 3637 c8ba a4d2 60be 6bbf f33d
00000100: 7c8e 443d 8ce9 97bd 8905 36bc 1ac9 10be
00000110: 1ae5 823c 099b 363c 012e 463c 039f c63d
00000120: ec8c 573d 6a4b 0bbd 117f ef3d 5416 f83c
00000130: e7f9 203d ecbf 1fbd 09ab adbb 9732 1b3c
00000140: 7dc8 25be 5653 d83c dec7 5cbd 7fa6 9c3c
00000150: 1ea6 c63c 4bc6 24be fec7 503c c1d6 0dbc
00000160: 6802 c1bd e451 efbd 1917 b93d 5b8c b13d
00000170: a589 963d 1c82 ac3a 863b 7dbd 344c 0c3e
00000180: 6c99 003d 7ae1 b8bd 3cee eabd c933 00bd
00000190: 8fe1 1a3d 7647 1139 c9f1 e4bd a415 b4bc
000001a0: 7d1a 1cbd f819 193d 2d9f 323e 7c87 e8bd
000001b0: 382f 13bd 50fb 00bb 6c92 29bd 57d0 aebc
000001c0: c150 b7bd c317 cabb 5ddd 453d a2db 0a39
000001d0: c4a8 503d 467f 37bd 2ff1 ebbd 2af8 8ebd
000001e0: 5c5d af3c b105 aebd 24f5 803b 8423 503d
000001f0: 405d ba3d b710 75bc 3e0b bebd 35c7 153d
00000200: 7541 8fba 0ec0 2ebe b269 b3bd 32da 963b
00000210: e583 84bb 275b e7bb b1a2 18be 33f2 efbc
00000220: 09dc 803d db1e 843c 4237 ebbc dd56 06be
00000230: f398 abbc 76ce 83ba 877c 893d 6fb3 f23c
00000240: 5cb7 61bd 0294 fdbc 725c 8539 af44 15be
00000250: 7d6d 9b3c 3e79 05bd 9265 1dbd f4b1 4cbd
00000260: c000 75bd 79b2 07bd 8b0c 80bd cecd 04bd
00000270: 1118 33bd 72ae 163d 6dd4 10be 55f6 223e
00000280: bd41 6d3c 4b39 44be 329e 9fbd 325d 24be
00000290: d5dd bc3d d4c1 cfbc af30 04be 8c22 05bc
000002a0: 0826 1f3c fb29 d93c d1e3 b93d d3fa fbbd
000002b0: a4cd 903b 65fc 07bd cac0 acbd 9ae5 5b3d
000002c0: c89a b8ba e02c 16bc bfdd 9b3c ad43 dbbd
000002d0: de3a a0bd 3943 e3bd 29d8 e73c 1984 9cbd
000002e0: cf4b bcbd 364c 8dbd a3b6 5b3d 34e0 323d
000002f0: 58d3 b93c 79b3 043d c8b1 1fbd 7505 f23d
00000300: a58d 82bc 89cc a43c 3a57 9dbd 9907 a5bd
00000310: 0cd5 9f3c b17c 7dbd acd6 05be 2953 213b
00000320: 0272 a03d 92c5 6e3d 0803 a0bd fa81 c2bd
00000330: ace9 9b3c 7e67 7e3d 8c24 96bd 8b6d 6ebd
00000340: e926 b4bd 5b81 f33c d7e8 413d d0c8 ffbc
00000350: e060 5dbd 9d97 1cbd 474b 453d 4a43 9cbd
00000360: e96a 093d eba2 543d 2681 0ebd 1215 0e3e
00000370: 07dc b23d 483d f2bc 3751 efbd 39c4 df3d
00000380: aa28 733d e6d6 8ebd 3f04 0e3d 1e79 13bd
00000390: e284 6e3d 9b2e e5bd a35f 11bd 126b 4d3b
000003a0: 5f44 693d ae8f 033c a75c 8f3d 331c 1ebd
000003b0: 54fb 953d 6c56 c5bc 0fa6 6d3d fe1d a7bd
000003c0: 8e5a 8a3b 4170 213d 0779 7ebc a6de 02be
000003d0: 388a 0abd bf85 9ebd 372f 5f3d a0e0 59bd
000003e0: 80a0 cbbd 85c8 823c c5b8 7abb b7ae 9f3d
000003f0: 0bea d4bb 6fac a5bd aea1 d6bb efd7 6b3d
0.056023844 -0.12560701 0.0051298146 -0.09609755 0.027744612 -0.04756878 -0.08100224 0.062073816
0.042279147 -0.086554274 0.15969187 -0.011144805 0.0048809764 -0.03458585 0.039640274 0.012556933
-0.10558673 -0.059612803 0.06162585 0.028859796 -0.040355954 -0.05281041 -0.008362337 0.0025727374
0.03056935 -0.06429004 -0.07305743 0.038340803 -0.11106347 0.07032475 -0.18244421 0.08749946
-0.05257421 -0.03987373 -0.08871109 -0.08099682 0.037599154 -0.08074037 -0.022020264 0.09437002
0.048293147 -0.08064695 0.05012992 -0.054785922 -0.051596783 0.0150587065 -0.07671726 0.0104468865
-0.05599471 -0.10076303 0.037251007 -0.086966544 -0.046814345 -0.15918589 -0.02697079 -0.071212664
-0.06213215 -0.07706947 0.007291762 0.0057028555 -0.07023412 -0.0015275243 -0.21955353 0.119017445
0.047987446 -0.074175924 -0.011109718 -0.14139214 0.015978385 0.011145362 0.012095929 0.09698298
0.052624628 -0.034007467 0.11694158 0.030284084 0.039300825 -0.03900139 -0.00529993 0.009472511
-0.16189761 0.026406925 -0.053901546 0.01912236 0.024249133 -0.16091268 0.012742994 -0.008657158
-0.09424287 -0.11685541 0.09037609 0.08669349 0.07350472 0.0013161334 -0.061824344 0.13700944
0.031396315 -0.09027381 -0.11471221 -0.031299386 0.037812766 0.00013854899 -0.11178929 -0.021982975
-0.0381112 0.03737828 0.17443533 -0.113539666 -0.035933703 -0.0019681044 -0.041399404 -0.021339579
-0.089509495 -0.0061673834 0.04830681 0.00013242525 0.050942197 -0.04479911 -0.115206115 -0.06980927
0.021406822 -0.08497179 0.003935473 0.05081512 0.09099817 -0.014957598 -0.09279488 0.03656693
-0.0010929542 -0.1706545 -0.08760394 0.0046036476 -0.0040440434 -0.0070604268 -0.14905812 -0.029290294
0.062919684 0.016127994 -0.028712872 -0.13119073 -0.020946955 -0.0010056037 0.06713205 0.029626576
-0.055106506 -0.030954365 0.00025436614 -0.14576982 0.018973107 -0.03258633 -0.038426943 -0.049974397
-0.05981517 -0.03312919 -0.062523924 -0.032422833 -0.043724123 0.036787458 -0.14143534 0.1591428
0.014481005 -0.1916248 -0.07793845 -0.16051176 0.092219986 -0.02536098 -0.12909196 -0.008125912
0.009713657 0.026509276 0.09076656 -0.123037 0.0044190455 -0.033199687 -0.08435209 0.053685762
-0.0014084214 -0.0091659725 0.019026635 -0.107062675 -0.07823728 -0.11096806 0.028301315 -0.07642383
-0.09194147 -0.06899302 0.053640973 0.043670848 0.022683784 0.03239772 -0.038987905 0.11817447
-0.015936682 0.020117061 -0.07682653 -0.0805809 0.019510768 -0.061886493 -0.13070172 0.0024616218
0.07834245 0.058293886 -0.07813078 -0.09497447 0.019032322 0.062110417 -0.073311895 -0.058209937
-0.08796484 0.029724767 0.047341194 -0.031223685 -0.054047465 -0.038230527 0.048167493 -0.07630022
0.033549223 0.051913183 -0.034791134 0.13875225 0.08733373 -0.029570237 -0.116854124 0.109260984
0.059364952 -0.069745824 0.03467202 -0.03600418 0.058232196 -0.1119053 -0.035491597 0.0031344336
0.05694997 0.008029861 0.07000094 -0.03860111 0.07323328 -0.02408906 0.058019694 -0.081600174
0.0042222207 0.039413694 -0.015531785 -0.12780246 -0.033823222 -0.07740354 0.054488387 -0.053192735
-0.09942722 0.015964756 -0.0038257104 0.07796996 -0.0064976267 -0.0808953 -0.0065500354 0.057578977

sequential_6/conv2d_20/Conv2D f4 [128, 3, 3, 64]
00000000: aaae a4bc 6f9b ad3b 40e2 89bd 4baa 033d
00000010: 72f9 713c 025c c3bc e57e 02bd e811 30bd
00000020: 4005 9cbd 8aa7 11bd 72e3 feba 66c0 32bd
00000030: c65a 8a3c 5871 813c 18a9 86bd 8614 b8bc
00000040: 5f4c 08bc edfc c13c 6059 52bd 1867 bbbc
00000050: b917 173d d236 9dbc 836b 773b cd60 883a
00000060: 6239 d63c a28c 68bd 39f6 a6bc 13de b0bd
00000070: f8cb 84bd 5ffb b73c 6545 23bc bb6b 5dbd
00000080: 7fee 123d a25b 2ebd c357 2bbc c340 253d
00000090: bb20 87bd 552c 05bd fb35 a6bc 7579 b3bc
000000a0: edef 47bd 0178 d9bb 0847 dc3b 1f01 7a38
000000b0: be4c 88bd 224d 083d cc9a 28bc ef2f 333c
000000c0: 3503 043d 612d aebc dfb4 b1bd 5a33 9ebc
000000d0: fc74 9abd df43 e03c 5d10 64bd c987 ae3c
000000e0: 8358 35bd e609 4dbd 196b 89bd 8b4e 45bd
000000f0: 70e3 afbc 2fbd f4bc f7b8 a83c 3e17 98bd
00000100: e9db d5bc 9c64 e9bc d447 3bbd 14ae 203d
00000110: 0478 193c 57d1 78bd ffca a7bc d552 aabd
00000120: 31ad 56bd e98d 243c 6cf5 a9bd 9c31 013d
00000130: cf25 6e3c 1ba1 403c a7d1 8fbd e355 a0bd
00000140: da80 3fbd 0f8c b83b 9ece 033d bc34 133d
00000150: 8c5d aeb9 76d0 b7bc 2ad0 9bbd 4199 5cbd
00000160: 608a 183d 7ed9 67bd 9084 1bbd 06f7 3e3b
00000170: b5e8 abbd c098 b93c 42a6 49bd 3b98 063d
00000180: 8f48 4bbd c588 43bd e117 c0bc 6126 213c
00000190: 4646 9cbc f469 9bbd a356 563b 2132 4abb
000001a0: 75ac d5bc 88cd 0a3c 9f0f 87bd 2f52 e2bc
000001b0: a484 8c3c c57f 35bd 2db2 39bd 5d6a 9a3c
000001c0: e9eb 6fbd 308a 58bb b2c6 74bd 774b 9ebd
000001d0: 60d7 c33c d7c1 84bd f6cd 67bc bbff 36bd
000001e0: 2724 52bc 8b89 43bc 816a f1bc cbfc 26bd
000001f0: bef9 aa3c 85b2 30bd ea67 67bd 88ac dcbc
00000200: 5622 0dbd b1b7 fdbc ca40 51bd 1550 213c
00000210: e902 00bd f6e3 99bd 408a 72bd b080 85bd
00000220: d0ba 39bc 990e 5cbd 5b30 cd3c 84db 013d
00000230: 2b04 85bc 03a4 a6bc 1197 c8bc d73d cd3c
00000240: fd97 debb 43d5 3cbc 5d34 12bd 8230 0ebd
00000250: 8cec 1cbd 7a3b cb3c a337 a2bd 492e 82bd
00000260: c64d 77bd 2732 dbbb eca1 853d 94e7 b63b
00000270: a0ee 90b9 3f06 85bd 4722 b93c ffd0 5c3c
00000280: db8c e6bc d216 033d d997 13bd a796 0c3d
00000290: 7759 76bd 2390 c7bc bc8f 9bbc b06c ecbc
000002a0: acb3 18bd 219d 053d 6d24 febc 7fa1 413c
000002b0: 108c 02bb 654b ac3c 9bb7 d6bc 5271 bbbc
000002c0: 58b2 17bd b03e 27bd 5ea7 483c eb9a 3bbb
000002d0: adcf 24bd 2c5b 5a3c 4b25 bebd b0e1 8abc
000002e0: 782e 98bd 1d8f 80bc 9c85 5dbd 8555 63bc
000002f0: 92e2 453d f8b8 6ebd afab 193d 4d95 e2bc
00000300: d8f4 81bd c407 a43c f179 8dbd 4ea1 a23c
00000310: c8e4 0dbd 9bd7 3fbd 92a5 0ebc 4192 f6bb
00000320: 06ac e3b9 8209 a03c 2229 103d 5030 3bbd
00000330: 4508 5cbc e6f3 a9bb 0fe2 a3bd 1357 58bb
00000340: e0a1 c63c 9e9a 553d 6eb0 663d 19fb 483d
00000350: 335c 5dbd 5cad fbbc ea16 68bd 7c44 4ebc
00000360: b112 03bd e03d 02bc 388f ef3c 70e7 69bb
00000370: 821c d43c 9944 cb3b 2f61 1c3d 0f94 20bd
00000380: 15b3 fabc 75fc 513d e67e 7cbc 5b16 293d
00000390: 3a48 84bc 3f40 9fbd 5d5c 1a3d 8e37 443b
000003a0: 5cca 793c ffec 9c3c 1bd1 bb3c d35e 3ebd
000003b0: e5f6 cabc 833d 0cbc 7b50 72bd e717 d4bc
000003c0: 1f5a 8dbd 0430 5b3d 5a3a 96bd 6e05 01bd
000003d0: 98b1 81bd cc27 69bd a3c1 63bb 06b5 6cbd
000003e0: 0f18 e13c 0c9f 77bd 77f1 d03b a476 68bd
000003f0: 501d 47bd 05c9 93bd 19f8 06bd 723b fd3c
-0.020102818 0.00529807 -0.06732607 0.032144826 0.014768945 -0.023847584 -0.031859297 -0.042985827
-0.07618189 -0.03556017 -0.0019446446 -0.043640517 0.016888987 0.015801117 -0.06575221 -0.022470724
-0.00831899 0.023680175 -0.051354766 -0.022876307 0.036887858 -0.01919118 0.003775329 0.0010404825
0.02615041 -0.056774743 -0.02038108 -0.08636107 -0.064842165 0.02245873 -0.009965275 -0.054057818
0.03587198 -0.042567857 -0.010457936 0.040344965 -0.0659804 -0.03251298 -0.020289412 -0.021908501
-0.048812795 -0.00663662 0.006722335 5.960569e-05 -0.066552624 0.033276685 -0.010290813 0.010936721
0.03222962 -0.021261873 -0.086770765 -0.019311596 -0.07541844 0.027376113 -0.055679668 0.021304982
-0.044273864 -0.050058268 -0.067098804 -0.048170608 -0.021470755 -0.029875366 0.02059601 -0.07426308
-0.026105838 -0.028490357 -0.045722798 0.039228514 0.009366993 -0.060746517 -0.020482538 -0.0831658
-0.052411262 0.0100436 -0.08298764 0.03154145 0.014535381 0.011757161 -0.0702241 -0.078288816
-0.04675374 0.0056319307 0.032179467 0.035938963 -0.00033257564 -0.02243827 -0.076080635 -0.05385709
0.03724134 -0.0566039 -0.03796822 0.0029138937 -0.08393995 0.022655845 -0.04923082 0.032860022
-0.049629744 -0.047737855 -0.023448886 0.00983581 -0.019076478 -0.07588568 0.0032705448 -0.0030852633
-0.02608321 0.008471854 -0.06594776 -0.027627079 0.017153092 -0.044311304 -0.045335937 0.018849546
-0.05857459 -0.003304135 -0.059759803 -0.077292375 0.02390641 -0.064822845 -0.014148226 -0.044677477
-0.012826002 -0.011934648 -0.02946973 -0.040768426 0.02087104 -0.043139 -0.056495585 -0.026937738
-0.034456573 -0.03097138 -0.05108718 0.009845753 -0.031252775 -0.07514183 -0.059213877 -0.06518686
-0.0113360435 -0.05372486 0.025047472 0.031703487 -0.016237339 -0.020341879 -0.024486097 0.025053902
-0.0067930208 -0.011525455 -0.03569447 -0.03471423 -0.038311526 0.024808634 -0.07920768 -0.063564844
-0.060376905 -0.0066893282 0.06525025 0.0055818055 -0.0002764361 -0.06495332 0.022599353 0.013477563
-0.028143337 0.032004185 -0.036033485 0.03432336 -0.060143914 -0.024360722 -0.018989436 -0.02886042
-0.037280723 0.032620553 -0.031023229 0.011818289 -0.001991991 0.021032045 -0.026210597 -0.022881184
-0.037035316 -0.040831268 0.012246935 -0.0028626274 -0.040237118 0.013327401 -0.09284457 -0.01695332
-0.07430738 -0.015693242 -0.054082498 -0.01387537 0.048311777 -0.05828187 0.037517246 -0.027659083
-0.06345528 0.020023234 -0.06908024 0.019852307 -0.03464201 -0.046836477 -0.008706467 -0.007524759
-0.0004342498 0.019535784 0.035195477 -0.04570037 -0.013429706 -0.0051865457 -0.08002102 -0.0033010885
0.02424711 0.052149408 0.0563206 0.04906759 -0.054043006 -0.030722313 -0.056662478 -0.01258957
-0.032000247 -0.007949322 0.029243097 -0.0035690926 0.0258925 0.006203246 0.03817862 -0.0392037
-0.030602971 0.051266152 -0.015411114 0.041281085 -0.016147722 -0.07775926 0.03768574 0.002994034
0.015246 0.019155977 0.022926858 -0.04647715 -0.024775932 -0.008559587 -0.059158783 -0.025890304
-0.06901955 0.05351259 -0.073353484 -0.03149932 -0.063327014 -0.05692272 -0.0034752868 -0.057789825
0.027477292 -0.060454413 0.006376441 -0.05675377 -0.04861194 -0.07216076 -0.032951448 0.030912135

sequential_6/dense_6/BiasAdd/ReadVariableOp f4 [6]
00000000: be46 5abc e712 0cbd 209a 8d3c 8202 363a
00000010: 76f1 6f3d f26e babc
-0.01332253 -0.034197714 0.017285407 0.0006943123 0.058579884 -0.022757981

sequential_6/dense_6/MatMul f4 [6, 25088]
00000000: d035 03bd c2b4 b23c f050 d33b 9d4e ab3b
00000010: 77ec 363d e7b4 173c 5043 90bd 11f6 003d
00000020: ca55 83ba e22f b9b9 2e92 df3b 8acd 99bd
00000030: 1e3d 223b 6c2f 44bd acf0 92bd e6f7 f2bb
00000040: 4c02 7cbc 34d5 e33a 3ef4 903d 1e97 883c
00000050: 3fcb 3cbd ac54 01bc 051b 5bbc 8d48 98bd
00000060: 5d06 9f3c 609a 5e3b 09e0 6dbd 72d8 ddbb
00000070: 2733 153c bc19 f0bb 4468 463d 9c06 b7bd
00000080: 3a2a 4ebd 162c 533c d94b 50bc 9e6a 413d
00000090: 5a7f 45bd b5b0 73bb e8f2 d9bc f70f f4b9
000000a0: e7cf c43c a9a1 a13c 5a8a 4cbc f84b 453a
000000b0: 0a84 a0bd 1abf cfbb e2da 613c 6cc0 963b
000000c0: c934 55bc f0c6 c3bc cd7b c3bc 2c9e 9ebc
000000d0: d92e 7e3c a775 c0bc 480c ed3b 3f6e a33c
000000e0: 80f2 bcbc 842e 043c 0091 283d 4ce9 91bb
000000f0: 8bd3 01bd e589 6e3d 0605 7ebc 6a84 3cbd
00000100: e47c 633c fadd cdbc f4f2 5ab9 e39e b33c
00000110: a701 f0bc d175 733d 9f24 8b3c 77a2 71bb
00000120: 1379 903d 7aa6 f2bc 7187 423d a6d3 60bc
00000130: c0c1 94bc 89ca 90bd d505 613d 0e98 b33c
00000140: 97a0 d0bc b7d3 b6bc 278c 29bc 5957 cf3b
00000150: 7c94 1ebd 8a55 973c 07fe 0b3b 2585 c53b
00000160: d0e1 c13c 3a37 d43b 14ba 833c 92e1 693b
00000170: d983 a6bc 6818 e5ba 68d0 52bd f0f1 e9bb
00000180: 45fe 1fbd 3758 23bd 65b6 d4bc 9ac7 a43d
00000190: 12fb 683c 251e b9bb daa9 873d 00e2 3fbb
000001a0: 9caf 143b 7d8d 9fbd 76e3 98bc 40a1 1f3c
000001b0: dd36 8b3d c54e bb3c 882a 33bb 9507 1e3c
000001c0: 9181 0d3c 1bc1 e23d 2f5b b5bd fdd3 84bd
000001d0: ef35 35bd 7159 96bc ba36 243b 6c7e 96bc
000001e0: acda c13d 3f6d 89bd 61bd 0bbc 1c99 05bd
000001f0: d93f debd 743f 03bb 9a40 b1bd 25d7 96bd
00000200: 6284 adbb 4808 313d 132d 5abc 4180 58bc
00000210: 7224 c23d b030 faba aa2e aabd fe4a bd3c
00000220: 7b66 6fbc 1e6e 153c ad2f 74bc febe adbc
00000230: 8f3e ccbc f9f9 eebc 4183 c2bd 7686 7f3b
00000240: 8320 74bc 22e3 82b9 decb b13d 45f7 0fbc
00000250: 23d1 7dbd c0e1 12ba c392 d9ba 5dc5 52bd
00000260: 06ad ae3c 8992 573c 2ea7 a4bd f2ba 00bc
00000270: e5f2 563d 7b98 c6ba 0b6f 0e3d 2cc1 b2bd
00000280: c171 debc 6f12 46bb 87bf 5c3b 3eb5 8b3c
00000290: 3c63 eebc df67 53bb 4913 363b e103 3dbc
000002a0: ec15 083d 984a 883c e267 f43b 090d 1f3b
000002b0: 7e80 8bbd 9a23 aa3b 5fc2 f3bb 22cd f03c
000002c0: 20a1 8cbc e9f0 95bd 12ec 5ebd 1601 643b
000002d0: 4582 28bb df75 2c3c 1c5a bbbb 5ed8 87bb
000002e0: 0df3 aebc 0336 16bb 9f5e 1f3d 96cf bfbc
000002f0: b4a0 81bd 096e 1c3d ea76 033c eeab 85bd
00000300: 80bc c9ba 016d fc3b 49ae 603c fffc 31bc
00000310: 55e7 f9bc e4b8 8c3d e593 fabb e7d3 21bc
00000320: c6a3 6a3d 62ad ba3a 66e7 923d 0596 943a
00000330: 6ccb 2d3b 0795 e8bc adc4 ac3c ec11 1a3c
00000340: 961d b1bc 29ee ba3c dc07 be3b b359 1a3b
00000350: ad36 c2bb 82f4 b63b 6182 9dbb 5167 19bc
00000360: dfca cb3c 916d ed3b 014f 5c3a aac6 a6bb
00000370: be65 f73a 8a21 533c a8b3 bdbc 5eef a2bc
00000380: 1353 8abd 34f8 d7bd 5199 babc eb8c e93d
00000390: 4b48 9abb fb52 f13c a1e6 d83d 4ea1 3b3c
000003a0: 690a 523c 5abe e2bd 903c 68bd 7891 233d
000003b0: a1ab e03d 7877 913b 7d23 0dbc b9ab b13c
000003c0: f8cd 51bb 7678 a53d e96f c0bd 00ad f6bd
000003d0: bdf3 1ebd 5ec5 87bb 3c3a b4bc 523b 09bc
000003e0: f6c5 4e3d 21c9 acbd e0a5 993c f407 7ebd
000003f0: 949d 39bd 21bc 98bc a16c 00bd 05ed c2bd
-0.03203374 0.021814708 0.0064488575 0.0052278773 0.044659104 0.009259439 -0.07044089 0.031484667
-0.0010020074 -0.00035321625 0.006822846 -0.075099066 0.0024755667 -0.047896788 -0.07174811 -0.0074148057
-0.015381407 0.0017382265 0.070778355 0.01667362 -0.046092268 -0.0078937225 -0.013373141 -0.07435713
0.019412214 0.0033966526 -0.058074985 -0.006770187 0.009106434 -0.0073272865 0.04843928 -0.089368075
-0.05033324 0.012888929 -0.012713396 0.04722082 -0.048217155 -0.0037184183 -0.026605085 -0.000465512
0.024024917 0.019730406 -0.012484157 0.0007526274 -0.078376845 -0.0063399198 0.013785096 0.004600575
-0.013013073 -0.023898572 -0.023862744 -0.019362532 0.015514099 -0.023493601 0.00723413 0.01995003
-0.023064852 0.008067731 0.041153908 -0.00445286 -0.031695884 0.058236975 -0.015504127 -0.046024717
0.013884757 -0.02513026 -0.00020880607 0.021926349 -0.029297663 0.05943853 0.016985236 -0.0036870518
0.07054343 -0.029620398 0.04749245 -0.013722336 -0.018158793 -0.070698805 0.054937202 0.021923091
-0.0254672 -0.02231775 -0.010348356 0.0063275513 -0.038715824 0.018473405 0.002136113 0.006027835
0.023667246 0.00647631 0.01607994 0.003568743 -0.020326542 -0.0017478587 -0.051468283 -0.007139437
-0.03906085 -0.03987905 -0.025965879 0.080458835 0.014220016 -0.0056493455 0.066241935 -0.0029278994
0.002268768 -0.077906586 -0.01866315 0.009743035 0.06797574 0.022864709 -0.0027338583 0.009645362
0.008636848 0.11071988 -0.088552825 -0.06485746 -0.04424089 -0.018353196 0.0025057034 -0.01837083
0.094655365 -0.0671029 -0.008529038 -0.03261672 -0.10852022 -0.0020026835 -0.086549 -0.07365254
-0.0052953223 0.04322079 -0.013316411 -0.013214172 0.09479608 -0.0019087996 -0.08309682 0.023107048
-0.014611836 0.009120492 -0.014903945 -0.021209236 -0.024932174 -0.02917193 -0.09497691 0.0038990057
-0.0149003295 -0.0002496476 0.08681463 -0.008786981 -0.061967026 -0.00056030974 -0.0016599525 -0.05145775
0.021322738 0.013157495 -0.080396995 -0.007857071 0.052477736 -0.0015151644 0.034773868 -0.08728251
-0.027153851 -0.003022339 0.0033683495 0.017054196 -0.029100053 -0.0032257957 0.002778249 -0.011536569
0.03322403 0.016637132 0.007458673 0.0024269244 -0.06811617 0.0051922323 -0.0074389423 0.02939469
-0.017166674 -0.073213406 -0.054424353 0.0034790686 -0.0025712412 0.0105261495 -0.005717529 -0.004145666
-0.02135613 -0.0022920377 0.038908597 -0.023414414 -0.0632948 0.038190875 0.008023957 -0.065269336
-0.001539126 0.007703424 0.013713428 -0.010863542 -0.030505816 0.068712026 -0.007647025 -0.009877182
0.057285093 0.0014242346 0.07173042 0.0011336213 0.0026518954 -0.028391374 0.021089876 0.009403687
-0.021620553 0.022818642 0.0057992768 0.0023552 -0.005926928 0.005583347 -0.004806802 -0.009363011
0.02487701 0.0072457273 0.00084041065 -0.0050896006 0.0018874926 0.012886414 -0.023156956 -0.01988953
-0.067541264 -0.10545388 -0.022778185 0.11403831 -0.004708325 0.029458513 0.10590864 0.011452032
0.012819865 -0.11071463 -0.056698382 0.03993365 0.109702356 0.0044392906 -0.008614418 0.021688329
-0.0032013636 0.08079617 -0.09396345 -0.12044716 -0.038806666 -0.004143401 -0.022000425 -0.0083759595
0.05048176 -0.084368 0.018755853 -0.062019303 -0.045316294 -0.018644394 -0.031353597 -0.09517864
